…
ass="token punctuation">,</span> <span class="token number">28</span><span class="token punctuation">)</span><span class="token punctuation">,</span> device<span class="token operator">=</span><span class="token string">"cpu"</span><span class="token punctuation">)</span><span aria-hidden="true" class="line-numbers-rows"><span></span><span></span><span></span></span></code></pre><blockquote><p>   -—————————————————————<br>           Layer (type)               Output Shape         Param #<br>   ================================================================<br>               Conv2d-1          [-1, 128, 14, 14]           2,176<br>          BatchNorm2d-2          [-1, 128, 14, 14]             256<br>                 ReLU-3          [-1, 128, 14, 14]               0<br>               Conv2d-4            [-1, 256, 7, 7]         524,544<br>          BatchNorm2d-5            [-1, 256, 7, 7]             512<br>                 ReLU-6            [-1, 256, 7, 7]               0<br>               Conv2d-7            [-1, 512, 3, 3]       2,097,664<br>          BatchNorm2d-8            [-1, 512, 3, 3]           1,024<br>                 ReLU-9            [-1, 512, 3, 3]               0<br>              Conv2d-10           [-1, 1024, 1, 1]       8,389,632<br>         BatchNorm2d-11           [-1, 1024, 1, 1]           2,048<br>                ReLU-12           [-1, 1024, 1, 1]               0<br>              Linear-13                   [-1, 16]          16,400<br>             Encoder-14                   [-1, 16]               0<br>              Linear-15                [-1, 16384]         278,528<br>     ConvTranspose2d-16            [-1, 512, 7, 7]       4,719,104<br>         BatchNorm2d-17            [-1, 512, 7, 7]           1,024<br>                ReLU-18            [-1, 512, 7, 7]               0<br>     ConvTranspose2d-19          [-1, 256, 14, 14]       1,179,904<br>         BatchNorm2d-20          [-1, 256, 14, 14]             512<br>                ReLU-21          [-1, 256, 14, 14]               0<br>     ConvTranspose2d-22            [-1, 1, 28, 28]           2,305<br>         BatchNorm2d-23            [-1, 1, 28, 28]               2<br>                ReLU-24            [-1, 1, 28, 28]               0<br>             Decoder-25            [-1, 1, 28, 28]               0<br>   ================================================================<br>   Total params: 17,215,635<br>   Trainable params: 17,215,635<br>   Non-trainable params: 0  </p><hr><p>   Input size (MB): 0.00<br>   Forward/backward pass size (MB): 2.86<br>   Params size (MB): 65.67<br>   Estimated Total Size (MB): 68.54  </p><hr></blockquote><pre class="line-numbers language-python" data-language="pyt
…
